Health_Vision/health-vision/frontend/assets/models/fall_detection_model.tflite (tflite, 244320 bytes, 18 tensors)

arith.constant9 f4 [32]
-0.11378168 -0.04273933 0.044665318 0.091097675 -0.0024784682 0.025259495 0.07552505 -0.0064237737
-0.09284646 0.05682442 0.05454961 -0.06258726 0.032529548 0.018997138 -0.0100502 -0.015137079
-0.17736316 -0.10016676 0.10564257 0.010247431 0.04197444 0.016674398 0.037683968 0.004406103
0.037313256 -0.15685359 0.012294416 0.039844893 0.009588369 0.08545789 -0.069917865 -0.016057266
00000000: 5f06 e9bd 700f 2fbd fbf2 363d 6b91 ba3d
00000010: cc6d 22bb 00ed ce3c e1ac 9a3d 857e d2bb
00000020: 4926 bebd b9c0 683d 696f 5f3d c02d 80bd
00000030: b43d 053d e39f 9b3c 98a9 24bc 8301 78bc
00000040: b09e 35be 3b24 cdbd 225b d83d d7e4 273c
00000050: 64ed 2b3d bf98 883c 815a 1a3d 1261 903b
00000060: c9d5 183d 3a9e 20be 856e 493c 6634 233d
00000070: 8918 1d3c 8c04 af3d 1931 8fbd 878a 83bc

arith.constant10 f4 [64]
0.0 -0.13686322 -0.06483861 -0.04496984 -0.011687995 0.017474419 -0.020035222 0.0
0.0 0.0 0.0 0.2004078 -0.08293995 -0.07096922 0.0 -0.111067675
-0.11833153 0.0 -0.0057884823 -0.042715244 -0.030018976 -0.11818737 -0.021901209 0.1011426
0.07515809 0.0 0.026331844 0.007898669 0.0 -0.14035936 -0.0043536946 -0.005968628
-0.156365 -0.07774046 -0.00231819 -0.073837616 0.0 -0.18929493 -0.04873971 -0.06287003
-0.01061147 -0.0034649828 0.0 0.0 0.0 -0.0012811848 -0.09035401 -0.065586045
-0.0704198 0.0 -0.03053369 0.0 -0.099905334 0.0290269 -0.11155899 -0.013638432
0.0 -0.0047400887 -0.1221332 -0.061540842 0.01700324 -0.02503958 -0.0067419084 0.0
00000000: 0000 0000 df25 0cbe 1bca 84bd 4c32 38bd
00000010: 017f 3fbc 8326 8f3c e820 a4bc 0000 0000
00000020: 0000 0000 0000 0000 0000 0000 b437 4d3e
00000030: 6cdc a9bd 4f58 91bd 0000 0000 7377 e3bd
00000040: cd57 f2bd 0000 0000 4fad bdbb 2ef6 2ebd
00000050: 5bea f5bc 380c f2bd 2a6a b3bc da23 cf3d
00000060: 7cec 993d 0000 0000 e1b5 d73c 6b69 013c
00000070: 0000 0000 5dba 0fbe 70a9 8ebb 7b94 c3bb
00000080: 261e 20be 6436 9fbd c6ec 17bb 2d38 97bd
00000090: 0000 0000 88d6 41be 4aa3 47bd 01c2 80bd
000000a0: bbdb 2dbc c414 63bb 0000 0000 0000 0000
000000b0: 0000 0000 6eed a7ba 860b b9bd fa51 86bd
000000c0: 4238 90bd 0000 0000 ca21 fabc 0000 0000
000000d0: 2b9b ccbd d2c9 ed3c 0a79 e4bd bb73 5fbc
000000e0: 0000 0000 bf52 9bbb f920 fabd 4012 7cbd
000000f0: 614a 8b3c ce1f cdbc 3aeb dcbb 0000 0000

arith.constant14 f4 [3, 32]
2.111438 0.5075962 0.21004774 -0.10701981 0.6357405 -0.17325148 0.3738213 -0.6615106
1.0669807 0.29092973 0.44096386 0.50156707 -0.90813607 1.1741081 -0.44274306 -0.56519175
10.911728 2.5859654 -1.7606615 -0.796988 -0.216479 -0.37451482 1.0627577 -0.18075012
-0.73943126 -2.864814 -0.67313033 0.41746363 1.7913576 -0.1273204 -4.051466 0.84651875
-1.2330593 -0.6388526 -0.5989903 -0.09099391 -0.26349685 0.55764884 0.023117771 0.27565125
-0.06034278 -0.49008107 -0.48456755 -0.47923258 0.07510566 1.7389172 0.09702182 -0.25213018
-4.517389 0.59301037 -0.28151482 2.4121692 0.30945575 0.2918288 -0.25556117 0.7144572
0.6849754 -1.5237203 -0.18114923 -0.6815561 0.34352946 -0.47094315 -0.5576226 -0.6929526
-2.8909528 -1.1112657 -0.24269098 2.3240957 -0.56796265 0.45186645 2.4020553 0.078215644
-2.6618342 -0.36537245 -0.011641337 -1.6660297 1.2175093 -7.8493395 0.4835525 0.3893693
-30.326826 -3.567127 1.7424722 2.8019729 0.21231362 0.18266909 0.77534807 0.8468444
0.24422847 8.553642 0.28965175 -0.9921066 -3.9617417 1.4539074 8.0436125 -0.52683824
00000000: cd21 0740 d3f1 013f c116 573e 342d dbbd
00000010: e4bf 223f d668 31be 8165 bf3e c258 29bf
00000020: d392 883f bef4 943e 04c6 e13e b366 003f
00000030: 9b7b 68bf 2d49 963f 38af e2be 68b0 10bf
00000040: 7096 2e41 7580 2540 5b5d e1bf 6807 4cbf
00000050: acac 5dbe 68c0 bfbe 7208 883f 8f16 39be
00000060: 5e4b 3dbf 1d59 37c0 4552 2cbf cbbd d53e
00000070: 354b e53f 4760 02be 9ca5 81c0 74b5 583f
00000080: e3d4 9dbf d88b 23bf 6e57 19bf 045b babd
00000090: 0fe9 86be 13c2 0e3f 7b61 bd3c 2922 8d3e
000000a0: fe29 77bd e8eb fabe 3d19 f8be f95d f5be
000000b0: ffd0 993d d794 de3f 60b3 c63d 3517 81be
000000c0: 738e 90c0 87cf 173f b622 90be fb60 1a40
000000d0: fc70 9e3e 966a 953e ead8 82be abe6 363f
000000e0: 8c5a 2f3f 4409 c3bf 2f7f 39be 767a 2ebf
000000f0: 18e3 af3e 761f f1be 5bc0 0ebf 5765 31bf
00000100: 5f05 39c0 f43d 8ebf fc83 78be fcbd 1440
00000110: 0066 11bf 0a5b e73e 46bb 1940 862f a03d
00000120: 7e5b 2ac0 1912 bbbe 4ebb 3ebc 7640 d5bf
00000130: 58d7 9b3f ca2d fbc0 3194 f73e 6a5b c73e
00000140: 579d f2c1 cf4b 64c0 5409 df3f 8653 3340
00000150: be68 593e 9b0d 3b3e 367d 463f cbca 583f
00000160: 0717 7a3e b8db 0841 3c4d 943e b3fa 7dbf
00000170: 2d8d 7dc0 a319 ba3f a3b2 0041 dfde 06bf

arith.constant15 f4 [3]
2.0511603 1.1393831 -10.056663
00000000: 3646 0340 4ed7 913f 17e8 20c1

tfl.pseudo_qconst i1 [64, 34]
-127 -63 -13 -70 29 -20 -30 117
-34 -126 17 -2 -48 11 -46 46
-55 -65 -100 74 99 38 73 -86
-42 -76 -50 121 -30 -12 84 -77
84 -86 41 88 48 -107 -29 -36
92 62 64 54 82 -23 80 -127
-9 -115 56 58 90 57 58 85
-95 -85 -60 -112 -38 65 -70 41
-121 86 -91 -33 52 -88 58 -103
63 18 48 -79 80 -1 41 110
-108 -48 -76 -19 65 64 -127 -91
-106 -36 17 62 11 53 -1 51
49 51 98 -8 93 -123 -96 21
81 127 -77 -96 1 89 -56 -53
101 -40 84 66 84 -93 16 108
7 -119 89 -93 123 -6 -93 -93
70 4 -26 -93 107 8 -75 70
53 -78 -49 -127 33 -17 4 -125
64 -62 -25 -37 -21 -52 -41 -54
28 -14 -19 7 61 41 -42 21
34 -4 13 94 -26 -35 41 -2
3 49 12 -113 28 -58 66 -83
33 -110 -34 -69 2 -1 35 -20
-27 -35 38 7 -35 -92 -127 -4
-98 104 98 43 -19 80 55 52
42 -51 -29 60 -30 -75 17 -62
-116 75 -89 -10 -69 -101 109 39
-58 67 -43 53 -37 -17 33 52
66 106 78 13 121 -16 -45 -22
-106 -35 15 24 3 -127 -110 69
30 109 -32 -115 76 -30 -93 -60
66 45 -84 96 -54 -127 -64 -5
00000000: 81c1 f3ba 1dec e275 de82 11fe d00b d22e
00000010: c9bf 9c4a 6326 49aa d6b4 ce79 e2f4 54b3
00000020: 54aa 2958 3095 e3dc 5c3e 4036 52e9 5081
00000030: f78d 383a 5a39 3a55 a1ab c490 da41 ba29
00000040: 8756 a5df 34a8 3a99 3f12 30b1 50ff 296e
00000050: 94d0 b4ed 4140 81a5 96dc 113e 0b35 ff33
00000060: 3133 62f8 5d85 a015 517f b3a0 0159 c8cb
00000070: 65d8 5442 54a3 106c 0789 59a3 7bfa a3a3
00000080: 4604 e6a3 6b08 b546 35b2 cf81 21ef 0483
00000090: 40c2 e7db ebcc d7ca 1cf2 ed07 3d29 d615
000000a0: 22fc 0d5e e6dd 29fe 0331 0c8f 1cc6 42ad
000000b0: 2192 debb 02ff 23ec e5dd 2607 dda4 81fc
000000c0: 9e68 622b ed50 3734 2acd e33c e2b5 11c2
000000d0: 8c4b a7f6 bb9b 6d27 c643 d535 dbef 2134
000000e0: 426a 4e0d 79f0 d3ea 96dd 0f18 0381 9245
000000f0: 1e6d e08d 4ce2 a3c4 422d ac60 ca81 c0fb

tfl.pseudo_qconst1 i1 [32, 128]
-15 36 0 12 -20 -37 59 6
-41 8 -76 -16 59 42 47 81
47 -11 97 -15 -91 -17 39 -35
99 32 64 -59 80 69 67 -78
117 -124 -17 73 84 -72 -65 -24
-93 -34 -48 -86 -61 -1 -17 -49
15 100 91 82 59 93 36 -14
44 -52 -73 -37 -6 64 -110 -18
41 -26 53 83 93 54 -8 -46
-35 38 92 98 -58 3 -33 -45
1 5 65 56 93 -65 20 44
-80 37 -13 90 84 49 -2 17
84 -19 -78 50 -75 -18 19 -44
-64 10 -36 -124 -74 -89 -35 -72
-43 45 -82 -103 49 -49 -123 60
93 50 68 -127 88 -33 -59 -72
-60 -71 44 33 68 53 68 72
41 -63 -64 61 61 -19 -54 57
-36 -34 -30 -14 -64 -31 121 -23
49 -49 117 51 -72 52 32 -77
59 -73 79 52 -21 -37 68 13
-34 -78 -11 78 9 -4 -82 -36
57 36 71 52 21 -33 54 -27
-55 66 -27 -14 38 -20 -68 -36
5 -48 32 61 -58 78 10 -77
23 22 90 73 72 84 62 -32
-12 87 -3 41 50 -15 102 57
-112 127 43 -87 24 -96 -76 -5
-70 87 -109 19 -72 -40 -103 -30
-16 15 71 61 -54 -65 -67 42
-9 23 62 78 30 52 3 30
-10 -79 -28 85 68 45 -24 -45
00000000: f124 000c ecdb 3b06 d708 b4f0 3b2a 2f51
00000010: 2ff5 61f1 a5ef 27dd 6320 40c5 5045 43b2
00000020: 7584 ef49 54b8 bfe8 a3de d0aa c3ff efcf
00000030: 0f64 5b52 3b5d 24f2 2ccc b7db fa40 92ee
00000040: 29e6 3553 5d36 f8d2 dd26 5c62 c603 dfd3
00000050: 0105 4138 5dbf 142c b025 f35a 5431 fe11
00000060: 54ed b232 b5ee 13d4 c00a dc84 b6a7 ddb8
00000070: d52d ae99 31cf 853c 5d32 4481 58df c5b8
00000080: c4b9 2c21 4435 4448 29c1 c03d 3ded ca39
00000090: dcde e2f2 c0e1 79e9 31cf 7533 b834 20b3
000000a0: 3bb7 4f34 ebdb 440d deb2 f54e 09fc aedc
000000b0: 3924 4734 15df 36e5 c942 e5f2 26ec bcdc
000000c0: 05d0 203d c64e 0ab3 1716 5a49 4854 3ee0
000000d0: f457 fd29 32f1 6639 907f 2ba9 18a0 b4fb
000000e0: ba57 9313 b8d8 99e2 f00f 473d cabf bd2a
000000f0: f717 3e4e 1e34 031e f6b1 e455 442d e8d3

arith.constant18 f4 [256]
0.004049125 -0.039219018 0.12127474 -0.024776641 -0.10415749 -0.040151183 -0.031039529 -0.04969057
-0.029698214 -0.1086835 0.04109795 -0.031234762 -0.022094715 0.013391899 -0.05800492 -0.05495533
0.008505348 -0.060292017 -0.057832673 -0.015687801 0.0449491 0.011265081 0.046508342 -0.05608084
0.023215018 0.008949182 0.101507805 0.04102165 0.037822347 -0.03873484 -0.038548786 0.0074126786
-0.060011104 -0.02143926 -0.023176352 -0.010378962 -0.04885852 -0.085676216 -0.02721096 -0.030789783
-0.016910449 0.05178106 -0.069800995 -0.02841345 -0.009579026 -0.050427854 0.06412954 0.056871288
-0.019651156 0.01435528 -0.03955221 0.04176346 -0.01518845 -0.07315621 0.023985501 -0.007999304
-0.055492867 0.0103052985 0.066888005 -0.06904091 0.04587989 -0.015112759 -0.071508795 0.04801823
1.0263727 0.98529 1.0648038 0.9719986 0.91617775 0.98317176 0.99132407 0.9878453
0.9970148 0.92199993 1.04654 0.9668739 0.9561892 1.0227257 0.92481774 0.98321474
0.94668746 0.94587016 0.9457803 1.0127907 0.97434497 0.95814687 1.080696 0.9379717
0.991634 1.0307099 1.0558455 1.057427 1.0480404 0.97612125 0.9654606 1.022652
0.9448469 1.0086673 1.0039557 1.0013738 0.9857413 0.8862442 0.99398273 0.9824934
1.0186161 0.9922278 0.9371548 1.0044805 1.0212162 0.98253405 1.026814 0.9897912
1.0019591 0.945576 0.9859083 1.0192422 1.0069611 0.9460745 1.0418932 0.9963722
0.99475974 1.046456 1.0499964 0.92896116 1.0584054 1.0538208 0.9672047 1.0269235
0.036004122 0.06952832 -0.09283666 -0.0141907325 0.028538212 0.07578897 -0.04975007 0.059833214
-0.06475374 -0.03010924 0.037653655 0.020447956 0.053529926 -0.014020102 0.007934744 -0.0033786832
0.017815763 0.009705133 0.006343311 0.024451941 -0.007550196 0.050475135 0.030424751 0.04860132
-0.04916848 -0.013231838 -0.016336737 -0.04633997 -0.044909865 0.054731905 0.019656708 -0.043090973
0.055230577 0.009550637 0.048020512 0.030886965 -0.031067166 -0.014101636 0.0033494884 -0.06404753
-0.0033098978 -0.036797773 0.034356296 0.016039103 -0.014638131 -0.020286169 -0.010612712 -1.8794542e-05
-0.014151384 0.04059453 0.03150164 -0.001307645 0.031244416 0.014772403 0.028132133 -0.029611994
0.01578019 -0.06182195 0.012389698 0.009318547 0.032217532 0.017449342 -0.002855671 -0.0070154164
-0.006063953 -0.031866614 0.121000715 -0.021490403 -0.10599928 -0.047807243 -0.032125473 -0.03939779
-0.03324125 -0.11293785 0.046339046 -0.027452799 -0.016189441 0.014398647 -0.047194906 -0.046741284
-0.0067774435 -0.05627387 -0.0557034 -0.03474213 0.042768016 0.0028394824 0.0362503 -0.066348836
0.035719033 0.010693815 0.081479244 0.03918213 0.030982608 -0.03580002 -0.05174493 0.016221076
-0.06352971 -0.032611277 -0.014084967 0.01667979 -0.042288102 -0.092588164 -0.028749721 -0.040498327
-0.020054372 0.03869139 -0.062719434 -0.003873845 0.004071594 -0.06677035 0.0655125 0.05623709
0.0065043257 0.011285111 -0.034820557 0.046363454 -0.02712285 -0.059286956 0.018372174 -0.014799759
-0.054264363 0.036133338 0.06996387 -0.07726557 0.02635266 -0.023899112 -0.07375568 0.047739755
00000000: 86ae 843b 1fa4 20bd e45e f83d 62f8 cabc
00000010: 8650 d5bd 9175 24bd 9c46 febc 5788 4bbd
00000020: ab49 f3bc 7495 debd 5356 283d 0be0 ffbc
00000030: faff b4bc b269 5b3c 9196 6dbd d718 61bd
00000040: 045a 0b3c c3f4 76bd f4e1 6cbd b483 80bc
00000050: 8c1c 383d 2d91 383c 887f 3e3d 06b5 65bd
00000060: 6c2d be3c 979f 123c 53e3 cf3d 5106 283d
00000070: 9beb 1a3d 6ca8 1ebd 55e5 1dbd 0ee6 f23b
00000080: 34ce 75bd 63a1 afbc 55dc bdbc 860c 2abc
00000090: df1f 48bd 0377 afbd 85e9 debc db3a fcbc
000000a0: c887 8abc 6018 543d d3f3 8ebd 53c3 e8bc
000000b0: 59f1 1cbc 708d 4ebd 5956 833d def1 683d
000000c0: 76fb a0bc 6932 6b3c 8001 22bd 2910 2b3d
000000d0: fad8 78bc ecd2 95bd 3e7d c43c 830f 03bc
000000e0: 7d4c 63bd 8ed7 283c 94fc 883d 5265 8dbd
000000f0: 8dec 3b3d 819b 77bc 3473 92bd c3ae 443d
00000100: 2e60 833f f73b 7c3f 7e4b 883f e6d4 783f
00000110: a08a 6a3f 25b1 7b3f 6ac7 7d3f 6ee3 7c3f
00000120: 5d3c 7f3f 3008 6c3f 06f5 853f 0c85 773f
00000130: d1c8 743f ade8 823f dbc0 6c3f f6b3 7b3f
00000140: 1c5a 723f 8c24 723f a81e 723f 20a3 813f
00000150: ac6e 793f 1d49 753f 3f54 8a3f ea1e 703f
00000160: badb 7d3f 4dee 833f f225 873f c559 873f
00000170: 3026 863f 15e3 793f 6d28 773f 43e6 823f
00000180: 7de1 713f 031c 813f 9f81 803f 042d 803f
00000190: 8b59 7c3f e6e0 623f a775 7e3f b084 7b3f
000001a0: 0362 823f a402 7e3f 61e9 6f3f d192 803f
000001b0: 36b7 823f 5a87 7b3f a46e 833f f562 7d3f
000001c0: 3240 803f 4511 723f 7d64 7c3f 8776 823f
000001d0: 1ae4 803f f031 723f c25c 853f 4012 7f3f
000001e0: 93a8 7e3f 45f2 853f 4866 863f 66d0 6d3f
000001f0: d479 873f 9ae3 863f ba9a 773f 3b72 833f
00000200: 0f79 133d dd64 8e3d 2621 bebd 3f80 68bc
00000210: f8c8 e93c 3f37 9b3d bbc6 4bbd ac13 753d
00000220: 9c9d 84bd a7a7 f6bc b83a 1a3d 7982 a73c
00000230: 3242 5b3d 92b4 65bc ba00 023c e66c 5dbb
00000240: 5df2 913c 4702 1f3c 8ddb cf3b 704f c83c
00000250: a267 f7bb 04bf 4e3d 543d f93c 2d12 473d
00000260: e364 49bd 5aca 58bc 9fd4 85bc fbce 3dbd
00000270: 68f3 37bd 902e 603d 1b07 a13c 2980 30bd
00000280: 7539 623d 467a 1c3c 28b1 443d a906 fd3c
00000290: 9280 febc 8c0a 67bc 1783 5b3b 5a2b 83bd
000002a0: dfea 58bb 43b9 16bd 30b9 0c3d 7064 833c
000002b0: c5d4 6fbc 2e2f a6bc f1e0 2dbc f9a8 9db7
000002c0: 35db 67bc 7346 263d dd07 013d 4965 abba
000002d0: 4af4 ff3c f307 723c 5c75 e63c da94 f2bc
000002e0: 7545 813c 0339 7dbd 29fe 4a3c d2ac 183c
000002f0: 88f6 033d ecf1 8e3c 3626 3bbb 94e1 e5bb
00000300: 20b4 c6bb 9186 02bd 39cf f73d a40c b0bc
00000310: 2716 d9bd 87d1 43bd 0096 03bd 945f 21bd
00000320: fa27 08bd f64b e7bd 03ce 3d3d b1e4 e0bc
00000330: b89f 84bc 4de8 6b3c 724f 41bd ca73 3fbd
00000340: 5115 debb 6e7f 66bd 4029 64bd c44d 0ebd
00000350: 842d 2f3d 9c16 3a3b 327b 143d e6e1 87bd
00000360: 1f4e 123d 1c35 2f3c 97de a63d 717d 203d
00000370: 3dcf fd3c 0ba3 12bd 7ef2 53bd 10e2 843c
00000380: dd1b 82bd 6793 05bd a2c4 66bc 0ea4 883c
00000390: 4a36 2dbd dd9e bdbd 8984 ebbc 93e1 25bd
000003a0: 1149 a4bc dd7a 1e3d 0c73 80bd 56e0 7dbb
000003b0: 026b 853b e5be 88bd 6b2b 863d dd58 663d
000003c0: 3d22 d53b 30e5 383c 00a0 0ebd 9be7 3d3d
000003d0: bd30 debc e1d6 72bd 3e81 963c b07a 72bc
000003e0: 4f44 5ebd 8d00 143d 3849 8f3d 693d 9ebd
000003f0: 89e1 d73c 12c8 c3bc 380d 97bd c38a 433d

tfl.pseudo_qconst2 i1 [256, 64]
3 18 44 87 43 68 94 66
20 2 63 16 38 29 69 -5
-48 -37 21 -50 40 127 -58 -77
70 -55 -42 37 -29 29 -64 -17
46 -31 86 33 70 -13 4 30
66 -11 0 43 29 -13 68 -10
62 -72 45 11 16 55 -42 23
-52 15 -14 29 -27 49 69 11
-43 -55 -40 -112 -42 -7 8 -9
45 40 3 37 -44 3 -13 -72
-65 -10 16 -39 36 -46 38 74
47 43 -41 -29 -6 -40 -27 -5
-45 -78 -81 -13 16 -47 -61 -45
-46 38 -33 26 -43 -59 -127 23
16 3 -78 34 -45 16 -19 -5
44 33 -51 29 33 -10 6 14
-38 24 -110 -12 -52 20 -72 2
-14 -32 60 89 9 -63 59 -30
-6 9 18 -45 62 -3 -11 55
57 -36 -81 77 -44 -69 17 51
-121 -58 11 -51 -24 -36 -127 -64
-49 53 51 37 -24 -3 -127 -34
-17 -48 -1 27 -42 55 -15 -8
-26 -33 -96 -10 66 34 -45 -3
48 -99 -22 -9 -57 54 37 50
5 -38 -35 -63 15 9 7 -12
-127 -18 17 -53 -10 9 3 111
-7 12 50 109 -3 36 12 34
-3 -40 36 -15 -24 0 16 86
-41 -35 9 50 -19 5 -5 -8
66 17 -12 1 -47 -54 47 6
-17 -44 -1 -41 35 -62 -45 30
00000000: 0312 2c57 2b44 5e42 1402 3f10 261d 45fb
00000010: d0db 15ce 287f c6b3 46c9 d625 e31d c0ef
00000020: 2ee1 5621 46f3 041e 42f5 002b 1df3 44f6
00000030: 3eb8 2d0b 1037 d617 cc0f f21d e531 450b
00000040: d5c9 d890 d6f9 08f7 2d28 0325 d403 f3b8
00000050: bff6 10d9 24d2 264a 2f2b d7e3 fad8 e5fb
00000060: d3b2 aff3 10d1 c3d3 d226 df1a d5c5 8117
00000070: 1003 b222 d310 edfb 2c21 cd1d 21f6 060e
00000080: da18 92f4 cc14 b802 f2e0 3c59 09c1 3be2
00000090: fa09 12d3 3efd f537 39dc af4d d4bb 1133
000000a0: 87c6 0bcd e8dc 81c0 cf35 3325 e8fd 81de
000000b0: efd0 ff1b d637 f1f8 e6df a0f6 4222 d3fd
000000c0: 309d eaf7 c736 2532 05da ddc1 0f09 07f4
000000d0: 81ee 11cb f609 036f f90c 326d fd24 0c22
000000e0: fdd8 24f1 e800 1056 d7dd 0932 ed05 fbf8
000000f0: 4211 f401 d1ca 2f06 efd4 ffd7 23c2 d31e

tfl.pseudo_qconst3 i1 [256, 64]
-89 40 -1 36 28 -34 -50 53
111 54 107 11 104 -58 -69 -18
34 0 -19 108 -71 122 44 -38
-92 -40 -15 -89 -56 2 -40 -105
-35 51 53 91 -28 16 -38 0
-119 13 1 58 40 -3 27 -9
-36 127 44 -23 44 -39 -46 -66
-86 106 -40 -5 36 -22 57 -52
82 -60 95 37 44 36 -64 -46
36 -51 4 30 -6 36 33 42
-17 5 -28 -40 -25 11 -52 -4
62 19 -86 96 -82 90 -95 0
24 -98 -31 76 44 -6 17 -22
28 78 41 -14 -26 -116 47 -44
122 -36 75 -59 -48 -61 -127 49
-55 65 -35 14 45 95 -69 -45
-45 -1 -42 4 23 5 -13 -25
-11 -7 59 48 99 -41 12 48
10 14 -127 2 -25 45 -47 -21
-25 57 -70 -6 -40 2 -68 -52
41 -43 -5 63 22 -20 -6 -22
-47 -23 14 -64 27 -90 49 -9
16 92 26 4 -20 -23 -46 -6
13 32 -30 22 21 18 -1 -109
-18 -29 -50 -72 48 -73 24 -65
-6 32 20 16 42 -40 -80 34
122 -2 -44 -9 17 16 2 85
-103 127 -53 -37 -75 44 29 -20
21 -25 -36 -6 -2 68 -9 -4
-49 -18 1 -40 17 27 25 45
33 32 43 -14 28 10 -57 18
24 44 112 11 -9 65 -28 -28
00000000: a728 ff24 1cde ce35 6f36 6b0b 68c6 bbee
00000010: 2200 ed6c b97a 2cda a4d8 f1a7 c802 d897
00000020: dd33 355b e410 da00 890d 013a 28fd 1bf7
00000030: dc7f 2ce9 2cd9 d2be aa6a d8fb 24ea 39cc
00000040: 52c4 5f25 2c24 c0d2 24cd 041e fa24 212a
00000050: ef05 e4d8 e70b ccfc 3e13 aa60 ae5a a100
00000060: 189e e14c 2cfa 11ea 1c4e 29f2 e68c 2fd4
00000070: 7adc 4bc5 d0c3 8131 c941 dd0e 2d5f bbd3
00000080: d3ff d604 1705 f3e7 f5f9 3b30 63d7 0c30
00000090: 0a0e 8102 e72d d1eb e739 bafa d802 bccc
000000a0: 29d5 fb3f 16ec faea d1e9 0ec0 1ba6 31f7
000000b0: 105c 1a04 ece9 d2fa 0d20 e216 1512 ff93
000000c0: eee3 ceb8 30b7 18bf fa20 1410 2ad8 b022
000000d0: 7afe d4f7 1110 0255 997f cbdb b52c 1dec
000000e0: 15e7 dcfa fe44 f7fc cfee 01d8 111b 192d
000000f0: 2120 2bf2 1c0a c712 182c 700b f741 e4e4

arith.constant21 f4 [256]
-0.07887156 -0.0028284523 -0.033784967 -0.02412836 0.0075812093 0.07932986 -0.011200539 -0.06572142
0.012199127 -0.092309654 -0.05777341 0.017051075 -0.03647712 0.013966337 -0.033779804 0.05208176
0.018039228 -0.067934915 -0.02753611 -0.011889695 0.011758502 -0.06905649 0.005184581 -0.012446032
-0.063343234 0.062658414 0.018613875 -0.040779628 -0.04534539 -0.03587556 -0.013868324 -0.03390722
-0.022079049 0.032161217 0.021696823 0.082729965 -0.028996013 -0.020095581 -0.014765374 -0.047194168
-0.12153953 -0.079214856 -0.0033139002 -0.01745178 -0.058384564 -0.041726697 -0.026124224 0.07657604
-0.03972452 0.11456435 0.033680093 -0.07033775 0.15369508 -0.027408341 -0.093886174 -0.020404816
-0.058254264 -0.08773791 -0.07946974 -0.027258543 -0.049182564 0.015293133 -0.009852321 -0.030255899
0.9369384 0.9752039 0.95965314 0.97937036 0.976083 1.0093822 1.0782365 0.9578877
1.0049492 0.8958617 1.01482 1.0684692 1.0178143 0.99948484 0.972463 1.1272767
1.0778227 0.95393306 0.97546667 0.9980812 1.0455375 0.961578 1.048779 1.0493213
0.93931293 1.0574566 1.028315 0.9567321 0.93529606 0.9712887 1.009046 0.9965977
0.9976469 1.0217037 1.017528 0.973483 0.96399045 1.0130116 0.97566557 0.9527612
0.9324909 0.95505327 0.99868745 0.99122864 0.96575665 0.9993811 0.97314286 0.99000996
0.93284553 1.1770861 1.0422573 0.92901385 1.1890569 0.9765511 0.9165406 1.0099164
0.97570753 0.8832655 0.98029846 1.0382524 0.98098063 0.9901314 1.007415 0.9925366
0.0014704934 0.03676128 0.05239261 -0.02205441 -0.022787323 0.024481898 0.03388371 -0.03484448
0.0067884093 0.0501756 0.026962781 0.03243133 -0.04584069 0.0003864532 -0.05250046 -0.0047620297
0.035512388 0.013526348 0.006027069 0.09029891 -0.0033478502 0.036144562 -0.0065311226 0.031867724
0.04982763 0.028878927 0.04949679 -0.04080138 0.0399371 0.012239209 -0.0028263282 -0.0030949682
0.014503756 -0.04930583 -0.02835839 -0.00071918924 0.043760113 0.04015342 -0.010283123 0.020645034
-0.013478561 -0.004207831 0.050461363 -0.04071647 0.02328166 -0.06669048 -0.08097421 -0.026634172
-0.06207224 0.042307533 -0.024937259 -0.03820756 0.043192238 -0.02971056 -0.024639105 -0.04486246
0.014010118 0.026258044 0.013301334 0.0028601915 -0.05732162 -0.024369305 -0.0110051455 0.030608257
-0.07807869 0.012972318 -0.03322224 -0.019747922 0.016761329 0.082258895 -0.0149275595 -0.06537209
-0.0041376054 -0.086898535 -0.03614074 0.0559207 -0.00024052228 0.021977475 -0.029998012 0.033199757
0.03188703 -0.060763225 -0.03989195 -0.02730367 -0.016231664 -0.06640818 -0.004608065 -3.8315426e-05
-0.067857 0.01747333 0.0152052315 -0.042226654 -0.054474235 -0.03411396 -0.013619057 -0.050050534
-0.019365983 0.03497404 0.018673241 0.07371116 -0.032850888 -0.040173005 -0.0034425026 -0.048741873
-0.11686811 -0.090657406 -0.020241776 -0.027171833 -0.06925435 -0.05471298 -0.00070079416 0.0750648
-0.042916283 0.100133605 0.04903517 -0.074940026 0.117829226 -0.045988612 -0.09137762 -0.0065442338
-0.03928251 -0.08923339 -0.09174722 -0.03842816 -0.043190483 0.020919263 -0.005171414 -0.040332515
00000000: 6a87 a1bd 8e5d 39bb 1b62 0abd d7a8 c5bc
00000010: cb6b f83b b277 a23d 7782 37bc f498 86bd
00000020: d9de 473c d80c bdbd d0a3 6cbd b2ae 8b3c
00000030: 0869 15bd 10d3 643c b15c 0abd af53 553d
00000040: 01c7 933c 7621 8bbd 6893 e1bc ffcc 42bc
00000050: bba6 403c 7d6d 8dbd 6be3 a93b 71ea 4bbc
00000060: 19ba 81bd 0e53 803d 207c 983c 8a08 27bd
00000070: 16bc 39bd 40f2 12bd f837 63bc 4ce2 0abd
00000080: 1fdf b4bc 7bbb 033d 89bd b13c 546e a93d
00000090: 0c89 edbc 7d9f a4bc 78ea 71bc ac4e 41bd
000000a0: b8e9 f8bd 663b a2bd 052e 59bb 09f7 8ebc
000000b0: a724 6fbd 9de9 2abd 7802 d6bc e6d3 9c3d
000000c0: 2eb6 22bd b7a0 ea3d 23f4 093d 3d0d 90bd
000000d0: 3e62 1d3e 7587 e0bc 6547 c0bd 0028 a7bc
000000e0: 069c 6ebd efaf b3bd 08c1 a2bd 4f4d dfbc
000000f0: a873 49bd 0d90 7a3c a16b 21bc 38db f7bc
00000100: 32db 6f3f f6a6 793f d4ab 753f 04b8 7a3f
00000110: 93e0 793f 7033 813f a703 8a3f 2138 753f
00000120: 2da2 803f 3157 653f 9fe5 813f 99c3 883f
00000130: bd47 823f 3dde 7f3f 56f3 783f 9a4a 903f
00000140: 18f6 893f f534 743f 2fb8 793f 4082 7f3f
00000150: 2cd4 853f fa29 763f 643e 863f 2950 863f
00000160: d076 703f bd5a 873f d39f 833f 65ec 743f
00000170: 906f 6f3f 60a6 783f 6b28 813f 0721 7f3f
00000180: ca65 7f3f 30c7 823f 5c3e 823f 2f36 793f
00000190: 14c8 763f 5daa 813f 38c5 793f 28e8 733f
000001a0: b9b7 6e3f 5f7e 743f fba9 7f3f 29c1 7d3f
000001b0: d43b 773f 71d7 7f3f e41f 793f 4b71 7d3f
000001c0: f7ce 6e3f c2aa 963f b068 853f dad3 6d3f
000001d0: 0433 983f 41ff 793f 68a2 6a3f f144 813f
000001e0: f8c7 793f b01d 623f d7f4 7a3f 74e5 843f
000001f0: 8c21 7b3f 4079 7d3f faf2 803f e116 7e3f
00000200: 92bd c03a ff92 163d a299 563d 73ab b4bc
00000210: 7bac babc 438e c83c a5c9 0a3d 16b9 0ebd
00000220: 4e71 de3b ee84 4d3d 0de1 dc3c b7d6 043d
00000230: 73c3 3bbd df9c ca39 b90a 57bd cd0a 9cbb
00000240: 7075 113d 9e9d 5d3c b87e c53b a3ee b83d
00000250: 9b67 5bbb 520c 143d 0703 d6bb bb87 023d
00000260: 0f18 4c3d 8093 ec3c 25bd 4a3d 591f 27bd
00000270: 1695 233d f786 483c eb39 39bb f3d4 4abb
00000280: 29a1 6d3c e9f4 49bd db4f e8bc f987 3cba
00000290: ce3d 333d ea77 243d 8b7a 28bc c61f a93c
000002a0: 2fd5 5cbc d8e1 89bb 93b0 4e3d 50c6 26bd
000002b0: 2eb9 be3c 0595 88bd ced5 a5bd e82f dabc
000002c0: 763f 7ebd aa4a 2d3d 3949 ccbc 887f 1cbd
000002d0: 58ea 303d 8f63 f3bc f3d7 c9bc b3c1 37bd
000002e0: b28a 653c 1c1b d73c d7ed 593c 0d72 3b3b
000002f0: 13ca 6abd 23a2 c7bc ed4e 34bc 2bbe fa3c
00000300: b8e7 9fbd d889 543c 0b14 08bd 65c6 a1bc
00000310: 0e4f 893c 5a77 a83d b992 74bc cde1 85bd
00000320: c094 87bb dcf7 b1bd 5008 14bd 1b0d 653d
00000330: b534 7cb9 1b0a b43c 64be f5bc 78fc 073d
00000340: f99b 023d dce2 78bd be65 23bd f2ab dfbc
00000350: 44f8 84bc 0301 88bd 40ff 96bb e0b4 20b8
00000360: 9cf8 8abd 3b24 8f3c 5d1f 793c dbf5 2cbd
00000370: 6020 5fbd 14bb 0bbd 7722 5fbc ca01 4dbd
00000380: 69a5 9ebc f040 0f3d a0f8 983c e0f5 963d
00000390: a78e 06bd 738c 24bd 9c9b 61bb 8fa5 47bd
000003a0: 8c58 efbd 97aa b9bd 15d2 a5bc 7797 debc
000003b0: 3ad5 8dbd b81a 60bd 80b5 37ba 93bb 993d
000003c0: fcc8 2fbd d912 cd3d 1ad9 483d 287a 99bd
000003d0: 7350 f13d 8e5e 3cbd 3124 bbbd 0371 d6bb
000003e0: b2e6 20bd ffbf b6bd f7e5 bbbd d966 1dbd
000003f0: 81e8 30bd e05e ab3c f774 a9bb b533 25bd

tfl.pseudo_qconst4 i1 [256, 64]
53 -127 -45 -20 -59 -62 -30 -27
-52 -17 37 -78 -43 -113 -23 -19
-70 -45 -34 65 -11 -58 53 66
-116 35 24 -30 5 -46 -47 -3
-19 8 -118 -90 -69 -30 -94 -73
-51 59 -6 -6 9 -89 -78 -57
-48 70 -1 -69 -82 -35 52 18
-51 40 -74 55 -9 -3 59 28
24 63 47 65 -50 -41 -13 31
3 17 -28 -127 11 19 29 23
109 -24 -50 -19 16 -7 20 -110
22 31 32 18 -17 27 -110 -34
97 27 -36 -2 14 39 53 -18
-65 -73 31 -40 13 56 19 25
11 -7 114 6 85 -15 52 -15
-43 -10 88 -16 8 -55 -38 -39
13 -3 -39 -83 -36 -30 28 -24
-39 -24 -2 -67 34 79 -30 -40
36 18 -8 47 18 -90 52 59
54 5 127 -18 -13 -4 -12 22
-6 -87 -7 -7 7 20 -97 84
-51 -52 61 10 12 -124 -39 -17
33 62 -120 -16 47 -44 -27 83
22 18 62 -55 -59 -13 23 0
-5 -57 -59 -46 -36 -37 -7 29
-22 -14 12 -94 24 -19 12 6
-127 -18 6 -29 -14 -38 -19 59
-2 13 -17 -20 -10 -33 41 -11
-82 -54 -56 -31 -34 -11 -60 -18
-41 3 -2 -10 5 -46 -94 -79
-24 -1 -108 17 -43 -87 -18 5
7 26 -50 -5 -6 -45 -21 -36
00000000: 3581 d3ec c5c2 e2e5 ccef 25b2 d58f e9ed
00000010: bad3 de41 f5c6 3542 8c23 18e2 05d2 d1fd
00000020: ed08 8aa6 bbe2 a2b7 cd3b fafa 09a7 b2c7
00000030: d046 ffbb aedd 3412 cd28 b637 f7fd 3b1c
00000040: 183f 2f41 ced7 f31f 0311 e481 0b13 1d17
00000050: 6de8 ceed 10f9 1492 161f 2012 ef1b 92de
00000060: 611b dcfe 0e27 35ee bfb7 1fd8 0d38 1319
00000070: 0bf9 7206 55f1 34f1 d5f6 58f0 08c9 dad9
00000080: 0dfd d9ad dce2 1ce8 d9e8 febd 224f e2d8
00000090: 2412 f82f 12a6 343b 3605 7fee f3fc f416
000000a0: faa9 f9f9 0714 9f54 cdcc 3d0a 0c84 d9ef
000000b0: 213e 88f0 2fd4 e553 1612 3ec9 c5f3 1700
000000c0: fbc7 c5d2 dcdb f91d eaf2 0ca2 18ed 0c06
000000d0: 81ee 06e3 f2da ed3b fe0d efec f6df 29f5
000000e0: aeca c8e1 def5 c4ee d703 fef6 05d2 a2b1
000000f0: e8ff 9411 d5a9 ee05 071a cefb fad3 ebdc

tfl.pseudo_qconst5 i1 [256, 64]
-19 -51 24 -6 60 -61 -1 4
10 -2 -95 44 16 25 -74 71
-59 38 7 71 -37 -109 -81 21
-43 9 23 -50 -7 -32 -57 -19
40 20 -117 -42 -69 80 -92 16
14 -20 -74 -2 -55 -27 72 -78
45 -7 -10 24 127 12 -24 14
-6 40 21 37 75 31 -16 -16
-75 17 -15 -8 -10 -11 -23 -24
-28 -20 18 51 -66 2 -18 -71
-15 26 2 36 22 48 37 -37
15 8 -100 -65 -35 20 59 -77
66 -5 5 -96 41 -15 -57 109
-13 12 -10 48 60 -13 23 6
29 41 -61 71 -6 -81 -59 -25
127 36 -4 -55 -1 89 -81 -77
-44 68 -12 -14 16 -48 66 -32
72 46 51 97 -35 18 -26 36
13 -5 50 35 -127 25 -88 41
31 -8 -77 -4 -59 -36 29 -19
64 3 -56 20 -8 5 -40 81
-83 -25 50 -72 -16 24 -19 -17
-3 61 18 9 4 -12 11 -30
123 31 14 -7 21 52 -96 -17
-4 -16 22 -88 68 -127 -29 -2
59 127 6 54 1 29 -94 104
-30 15 19 93 -64 43 -62 17
16 -50 87 -91 -8 -77 -46 41
32 13 -92 38 84 1 -51 23
-82 -48 -79 -5 -66 -83 -33 32
3 31 20 -6 -47 14 -27 -100
-12 -13 21 -1 -36 -48 4 -17
00000000: edcd 18fa 3cc3 ff04 0afe a12c 1019 b647
00000010: c526 0747 db93 af15 d509 17ce f9e0 c7ed
00000020: 2814 8bd6 bb50 a410 0eec b6fe c9e5 48b2
00000030: 2df9 f618 7f0c e80e fa28 1525 4b1f f0f0
00000040: b511 f1f8 f6f5 e9e8 e4ec 1233 be02 eeb9
00000050: f11a 0224 1630 25db 0f08 9cbf dd14 3bb3
00000060: 42fb 05a0 29f1 c76d f30c f630 3cf3 1706
00000070: 1d29 c347 faaf c5e7 7f24 fcc9 ff59 afb3
00000080: d444 f4f2 10d0 42e0 482e 3361 dd12 e624
00000090: 0dfb 3223 8119 a829 1ff8 b3fc c5dc 1ded
000000a0: 4003 c814 f805 d851 ade7 32b8 f018 edef
000000b0: fd3d 1209 04f4 0be2 7b1f 0ef9 1534 a0ef
000000c0: fcf0 16a8 4481 e3fe 3b7f 0636 011d a268
000000d0: e20f 135d c02b c211 10ce 57a5 f8b3 d229
000000e0: 200d a426 5401 cd17 aed0 b1fb bead df20
000000f0: 031f 14fa d10e e59c f4f3 15ff dcd0 04ef

arith.constant25 f4 [256]
-0.06158425 -0.07756847 -0.059581336 -0.06201472 0.0998481 -0.022704232 -0.03461156 -0.101997934
-0.014383454 -0.09850578 -0.05371125 -0.11195125 -0.045698386 -0.020775294 -0.085332565 -0.07904168
-0.060560465 -0.16222055 -0.084739305 -0.057809226 -0.064368434 -0.034392074 0.006964952 -0.057371218
-0.07068673 -0.048836853 -0.031595346 -0.072250545 -0.08595927 -0.05934391 -0.050185878 -0.042912453
-0.08348542 0.042514604 -0.037414216 0.019967087 -0.05134445 -0.004415617 0.03933589 -0.041461155
-0.07178522 -0.06605415 -0.05091717 -0.005970745 -0.071727626 -0.07758902 -0.122289196 -0.06849103
-0.04148128 -0.04460308 -0.036032733 -0.11842735 -0.03719808 -0.13463244 0.004460268 -0.009386701
-0.024752235 -0.0010472618 -0.021406887 0.0014057792 -0.03345803 0.005581059 -0.07151495 -0.054589912
0.97247696 0.9285991 1.039749 0.9312923 1.0538008 0.9950641 0.95737165 0.8969813
0.98230815 0.89351743 0.94178003 0.901839 0.90323806 0.9534524 0.9559965 0.8928376
0.925052 0.87442815 0.95961857 0.9146155 0.99403363 1.0019702 0.92141557 0.94499576
0.9182481 0.91951036 0.9210043 0.9286606 0.96116275 0.93369424 0.92490834 0.9947588
0.934606 1.0220256 0.9466729 1.0194623 0.95779353 1.0192453 0.99629194 0.9734623
0.95565826 0.9150442 0.9304909 1.0227476 0.92754495 0.93274134 0.8901573 0.9313689
0.9881935 0.9446634 0.9469485 0.89746684 0.95530176 0.90501964 1.0070492 1.0095719
0.9522423 0.95261735 0.9892492 1.0015347 0.9618564 0.9719262 0.952305 0.9445608
-0.018726934 0.015585728 0.04485255 0.0057063205 0.016027445 -0.027235389 0.03677941 0.022577798
-0.013111736 -0.06678036 -0.06071473 -0.019419096 -0.010061051 0.033482675 0.04501931 0.042691622
0.045492046 -0.0028153204 -0.027354633 -0.017711572 -0.038429525 -0.0029776641 -0.018815633 -0.017789973
-0.00180687 -0.020923465 -0.0045354525 0.030541021 -0.021717373 -0.0014524311 -0.021429142 0.021269288
0.014764767 -0.015150021 0.046923723 -0.025986247 0.01757806 0.018344544 -0.027546497 0.03517182
0.039554212 -0.013845803 -0.025425423 0.015169833 0.0018702361 0.03230436 -0.013526208 0.09607546
0.056728512 0.0484905 -0.004928751 0.008468101 0.035317738 0.008175826 0.0073094107 0.017880412
-0.0348094 -0.0032870346 -0.028633205 -0.008162356 -0.022616213 0.027272005 0.018049836 0.03140028
-0.032899812 -0.037727308 -0.040704746 -0.064036526 0.039343234 -0.015162838 -0.058320623 -0.09940944
-0.0029533529 -0.09396826 -0.049473938 -0.100626856 -0.08233728 -0.00017390311 -0.07314759 -0.07886898
-0.074561395 -0.17189549 -0.10087505 -0.06226854 -0.06016038 -0.058797453 0.009658664 -0.072122544
-0.085589275 -0.05316239 -0.079270296 -0.082865655 -0.0907186 -0.06880219 -0.07273107 -0.047654673
-0.08640659 0.01843267 -0.048757657 0.022018159 -0.060669348 -0.023318946 0.035543863 -0.044042226
-0.041096218 -0.072873615 -0.057475053 -0.001278149 -0.07754476 -0.07952845 -0.13172467 -0.07792226
-0.056987125 -0.067219146 -0.04979468 -0.11071898 -0.049124043 -0.12597543 0.005361134 -0.012977189
-0.017641507 -0.016614202 -0.032981846 0.018812414 -0.05534108 -0.015238964 -0.07258206 -0.0704968
00000000: c43f 7cbd 38dc 9ebd 8f0b 74bd 2603 7ebd
00000010: 297d cc3d 3afe b9bc dac4 0dbd 4be4 d0bd
00000020: 94a8 6bbc 66bd c9bd 5400 5cbd b246 e5bd
00000030: 3b2e 3bbd f330 aabc d7c2 aebd 9be0 a1bd
00000040: 400e 78bd 251d 26be cd8b adbd 5ec9 6cbd
00000050: 99d3 83bd b4de 0cbd 413a e43b 15fe 6abd
00000060: 34c4 90bd 2709 48bd 1f6a 01bd 18f8 93bd
00000070: 6a0b b0bd 9a12 73bd b58f 4dbd f8c4 2fbd
00000080: 67fa aabd cb23 2e3d a63f 19bd 0492 a33c
00000090: 8f4e 52bd e1b0 90bb ac1e 213d 2cd3 29bd
000000a0: 2104 93bd 6647 87bd 868e 50bd 3da6 c3bb
000000b0: efe5 92bd fee6 9ebd c272 fabd 0645 8cbd
000000c0: 46e8 29bd b8b1 36bd 0f97 13bd 0a8a f2bd
000000d0: 045d 18bd 16dd 09be 7127 923b adca 19bc
000000e0: 33c5 cabc 4644 89ba 7f5d afbc 1f42 b83a
000000f0: 4a0b 09bd 51e1 b63b 6e76 92bd ac99 5fbd
00000100: 40f4 783f acb8 6d3f 7f16 853f 2c69 6e3f
00000110: f2e2 863f 85bc 7e3f 4f16 753f 91a0 653f
00000120: 8c78 7b3f 8fbd 643f 7f18 713f ecde 663f
00000130: 9c3a 673f 7515 743f 30bc 743f 0191 643f
00000140: 35d0 6c3f 86da 5f3f 90a9 753f 3e24 6a3f
00000150: fd78 7e3f 8f40 803f e4e1 6b3f 3eeb 713f
00000160: 4f12 6b3f 0865 6b3f f0c6 6b3f b3bc 6d3f
00000170: c30e 763f 9606 6f3f cbc6 6c3f 83a8 7e3f
00000180: 5742 6f3f bcd1 823f 2859 723f be7d 823f
00000190: f531 753f a176 823f fd0c 7f3f d334 793f
000001a0: 05a6 743f 5640 6a3f a734 6e3f 65e9 823f
000001b0: 9673 6d3f 23c8 6e3f 59e1 633f 316e 6e3f
000001c0: 40fa 7c3f 76d5 713f 386b 723f 63c0 653f
000001d0: a88e 743f 5eaf 673f fde6 803f a739 813f
000001e0: 27c6 733f bbde 733f 703f 7d3f 4a32 803f
000001f0: 393c 763f 28d0 783f 43ca 733f bdce 713f
00000200: 3a69 99bc 485b 7f3c 4fb7 373d 16fc ba3b
00000210: fd4b 833c c01c dfbc 02a6 163d 13f5 b83c
00000220: 9bd2 56bc 24c4 88bd 02b0 78bd cc14 9fbc
00000230: 1bd7 24bc 2125 093d 2b66 383d 69dd 2e3d
00000240: de55 3a3d 3d81 38bb d316 e0bc dc17 91bc
00000250: 4768 1dbd ea24 43bb 3e23 9abc 47bc 91bc
00000260: 7fd4 ecba b067 abbc 229e 94bb 2a31 fa3c
00000270: a2e8 b1bc 805f beba 2b8c afbc ee3c ae3c
00000280: ece7 713c cb37 78bc 1733 403d 1ce1 d4bc
00000290: ddff 8f3c 4c47 963c 31a9 e1bc 5410 103d
000002a0: 9903 223d 82d9 62bc fa48 d0bc e48a 783c
000002b0: b622 f53a 9451 043d 079d 5dbc 36c3 c43d
000002c0: 285c 683d f99d 463d 5c81 a1bb cabd 0a3c
000002d0: 55a9 103d e6f3 053c c883 ef3b f179 923c
000002e0: 4d94 0ebd 4a6b 57bb 2f90 eabc 67bb 05bc
000002f0: a345 b9bc 8a69 df3c 40dd 933c 949d 003d
00000300: f4c1 06bd f387 1abd 05ba 26bd 9525 83bd
00000310: 5f26 213d 8d6d 78bc 9be1 6ebd 2d97 cbbd
00000320: 0a8d 41bb 6e72 c0bd 2fa5 4abd 7415 cebd
00000330: 73a0 a8bd c359 36b9 67ce 95bd 0f86 a1bd
00000340: a5b3 98bd 5f05 30be 9497 cebd 4c0d 7fbd
00000350: bb6a 76bd 99d5 70bd 603f 1e3c fcb4 93bd
00000360: 6e49 afbd cec0 59bd 7758 a2bd 78b5 a9bd
00000370: acca b9bd 2ae8 8cbd 07f4 94bd 8c31 43bd
00000380: f0f5 b0bd 1c00 973c 1cb6 47bd 6d5f b43c
00000390: 6c80 78bd 6007 bfbc 7196 113d 9f65 34bd
000003a0: 8254 28bd c33e 95bd f66a 6bbd 9087 a7ba
000003b0: cacf 9ebd d0df a2bd d5e2 06be b595 9fbd
000003c0: 556b 69bd 31aa 89bd 82f5 4bbd a2c0 e2bd
000003d0: 4b36 49bd b4ff 00be 74ac af3b 479e 54bc
000003e0: ec84 90bc 821a 88bc f917 07bd 7e1c 9a3c
000003f0: 54ad 62bd d9ac 79bc e7a5 94bd a060 90bd

tfl.pseudo_qconst6 i1 [256, 128]
-4 -1 -48 -7 -26 -16 33 15
-49 60 7 -9 -35 31 40 82
9 -5 33 12 -17 -81 -69 -30
35 -30 -64 1 -54 -54 -40 60
16 38 -20 16 -64 16 86 102
67 7 -44 30 3 12 23 -44
35 -7 81 -33 97 -13 3 6
67 -4 12 -14 4 127 -23 45
43 -101 -16 25 55 55 6 0
44 -34 -74 -48 -60 47 -3 10
-32 34 -45 -53 -55 16 -84 -81
-21 18 21 2 61 26 1 -8
-29 -44 -74 49 38 26 4 30
16 35 13 -17 -23 -41 64 40
17 -65 -29 -22 -92 37 31 69
28 103 -12 -17 35 33 -11 21
8 -24 -89 1 38 -10 58 20
-19 83 30 25 -48 -36 -53 4
84 54 -15 -21 -5 -30 -121 54
95 8 42 -6 61 77 20 45
36 57 58 -80 -67 69 37 126
-86 -50 -89 123 50 44 -50 -75
15 -46 21 56 1 -77 -47 -78
-4 65 -19 -65 5 103 -22 2
72 23 15 -40 -52 40 3 -41
127 83 -98 -39 -16 84 -55 90
-71 -24 89 -54 -26 33 -45 -36
24 -15 -93 71 49 45 -1 -18
19 -16 11 74 -69 -45 -34 -89
21 79 74 -36 -18 -45 77 -54
111 -65 -83 -82 -118 4 -123 26
16 87 -15 -19 -1 59 -61 -18
00000000: fcff d0f9 e6f0 210f cf3c 07f7 dd1f 2852
00000010: 09fb 210c efaf bbe2 23e2 c001 caca d83c
00000020: 1026 ec10 c010 5666 4307 d41e 030c 17d4
00000030: 23f9 51df 61f3 0306 43fc 0cf2 047f e92d
00000040: 2b9b f019 3737 0600 2cde b6d0 c42f fd0a
00000050: e022 d3cb c910 acaf eb12 1502 3d1a 01f8
00000060: e3d4 b631 261a 041e 1023 0def e9d7 4028
00000070: 11bf e3ea a425 1f45 1c67 f4ef 2321 f515
00000080: 08e8 a701 26f6 3a14 ed53 1e19 d0dc cb04
00000090: 5436 f1eb fbe2 8736 5f08 2afa 3d4d 142d
000000a0: 2439 3ab0 bd45 257e aace a77b 322c ceb5
000000b0: 0fd2 1538 01b3 d1b2 fc41 edbf 0567 ea02
000000c0: 4817 0fd8 cc28 03d7 7f53 9ed9 f054 c95a
000000d0: b9e8 59ca e621 d3dc 18f1 a347 312d ffee
000000e0: 13f0 0b4a bbd3 dea7 154f 4adc eed3 4dca
000000f0: 6fbf adae 8a04 851a 1057 f1ed ff3b c3ee

tfl.pseudo_qconst7 i1 [256, 64]
25 25 2 32 -49 -78 -9 -32
-55 -17 -15 -22 -26 -3 11 15
5 45 2 -12 -14 17 4 13
19 -25 -54 127 45 30 -33 -4
34 -49 13 38 44 9 25 14
50 -18 33 -61 -64 63 12 42
37 -5 -48 22 16 24 -44 -51
-42 0 -2 -7 9 -50 14 25
10 38 9 -8 -12 23 35 -44
9 -16 28 -29 39 35 16 29
2 -23 48 -1 34 18 16 -10
6 0 49 41 14 -37 9 27
-2 9 6 7 -55 -127 15 23
-31 5 0 -13 -7 8 2 7
22 -26 -55 36 12 -33 -46 -68
87 34 49 -7 -37 -34 -27 51
-12 -31 -29 27 16 -13 58 127
-44 -27 -8 62 40 -29 27 41
29 36 -31 -24 -13 -10 -47 -51
-29 40 -89 25 -30 -54 105 -30
48 -4 51 52 64 43 2 7
-4 -14 -75 13 22 -13 19 -49
-34 11 -46 -57 41 44 -39 51
-59 31 -7 -59 73 -57 49 -17
-25 -43 5 -30 29 32 40 17
19 -59 114 11 -35 -30 63 44
1 -3 39 20 37 -17 -21 -34
-15 -34 -64 -31 -9 -75 42 -103
37 -51 -41 -25 7 -42 24 -52
-98 -74 -42 -70 -17 -17 49 -32
-42 -16 15 -42 64 27 -45 127
-28 55 86 -25 115 -51 38 20
00000000: 1919 0220 cfb2 f7e0 c9ef f1ea e6fd 0b0f
00000010: 052d 02f4 f211 040d 13e7 ca7f 2d1e dffc
00000020: 22cf 0d26 2c09 190e 32ee 21c3 c03f 0c2a
00000030: 25fb d016 1018 d4cd d600 fef9 09ce 0e19
00000040: 0a26 09f8 f417 23d4 09f0 1ce3 2723 101d
00000050: 02e9 30ff 2212 10f6 0600 3129 0edb 091b
00000060: fe09 0607 c981 0f17 e105 00f3 f908 0207
00000070: 16e6 c924 0cdf d2bc 5722 31f9 dbde e533
00000080: f4e1 e31b 10f3 3a7f d4e5 f83e 28e3 1b29
00000090: 1d24 e1e8 f3f6 d1cd e328 a719 e2ca 69e2
000000a0: 30fc 3334 402b 0207 fcf2 b50d 16f3 13cf
000000b0: de0b d2c7 292c d933 c51f f9c5 49c7 31ef
000000c0: e7d5 05e2 1d20 2811 13c5 720b dde2 3f2c
000000d0: 01fd 2714 25ef ebde f1de c0e1 f7b5 2a99
000000e0: 25cd d7e7 07d6 18cc 9eb6 d6ba efef 31e0
000000f0: d6f0 0fd6 401b d37f e437 56e7 73cd 2614

arith.constant29 f4 [256]
-0.12551418 -0.019479405 -0.02194814 -0.105230495 -0.07702038 -0.099380784 -0.017212637 -0.053298805
-0.041865323 -0.05767829 -0.07753707 0.052842654 -0.063774906 -0.017750274 -0.0651815 -0.009934778
-0.09962109 -0.04797023 -0.102856904 -0.067671746 -0.009973727 -0.0015396551 -0.007453362 0.013460613
-0.081027426 -0.10838428 -0.0350376 0.011340482 -0.030696712 -0.15745053 -0.09658003 -0.027002435
-0.04550526 -0.0254586 -0.0013019183 -0.12436604 -0.08130064 -0.027614484 -0.041082956 -0.07263798
-0.0976109 -0.088505626 0.017737271 -0.06748823 -0.0037354007 -0.044927374 -0.11046844 -0.048362456
-0.13495065 -0.049450293 -0.029542798 -0.043382365 0.021975674 0.050821044 -0.07313678 -0.15881583
0.023743939 -0.04491345 -0.09148906 -0.08897843 -0.093473986 -0.08264279 -0.05567409 -0.004478938
0.92157394 0.96337026 0.9569734 0.89287764 0.89445 0.9069406 0.9847573 0.9384314
0.9253543 0.92752147 0.92980033 0.9836952 0.94087756 0.98206854 0.91886103 1.0288349
0.90949094 0.90106046 0.9137915 0.8788711 0.89572227 0.932295 0.9898067 0.9755406
0.92034346 0.88593596 0.9564697 0.96964246 1.0015457 0.83842903 0.883707 0.952142
0.9069974 0.9284138 0.9986428 0.88166636 0.9225302 0.9676321 0.98063946 0.90427107
0.8827795 0.8993191 0.9773843 0.94568276 0.9860249 0.9370336 0.91577566 0.9417569
0.8609279 0.92434585 0.9328251 0.94975597 0.96929395 0.9679497 0.9977936 0.848162
0.93533945 0.93771774 0.9036442 0.87760836 0.9620626 0.9157637 0.936505 0.96232426
-0.004852369 -0.0121425325 0.015933344 -0.06777707 0.018493498 -0.021138001 -0.038654685 0.009641649
-0.0031406435 0.018459333 -0.056042008 -0.052251555 -0.036768492 0.021549687 -0.044383015 0.014363789
-0.015219641 0.00013560388 -0.020846752 0.0083751 -0.0038555537 0.019916162 -0.016766619 0.02449695
-0.04694542 0.003593808 -0.04251023 0.027914116 -0.06269345 0.026008965 0.010556925 0.02516846
-0.04601698 0.06816634 -0.025214745 0.013994553 -0.0021277717 -0.017036995 -0.05476972 -0.004730935
0.0026380604 0.0058107045 0.012461878 0.00045121802 -0.012562687 -0.0007301871 0.060674954 0.015739918
-0.016699508 -0.025452524 -0.046355575 0.027097564 -0.061398555 -0.027334433 -0.065080084 -0.01681512
-0.02445737 -0.0143063245 0.06351762 -0.007180981 -0.0077832583 0.045093153 0.04986028 -0.001118635
-0.09120597 -0.026951589 -0.03207649 -0.09174225 -0.08296128 -0.08586695 -0.023622328 -0.052739542
-0.07342511 -0.055568032 -0.09231339 0.031603456 -0.05062611 0.024383416 -0.070303835 0.008806561
-0.07223937 -0.08695305 -0.10560959 -0.070391916 -0.0029072273 -0.059535097 -0.00709484 -0.04896209
-0.09621952 -0.10895941 -0.017290963 -0.003688685 -0.037208106 -0.15832716 -0.10286565 -0.04135254
-0.043579083 -0.046004005 -0.027221745 -0.13173504 -0.08736295 -0.049305286 -0.02829993 -0.06925516
-0.104606755 -0.07519946 -0.0013312515 -0.08589455 0.01248256 -0.04562909 -0.09563316 -0.041553717
-0.11641972 -0.0368192 -0.028518839 -0.050078906 0.023337848 0.06307121 -0.033929173 -0.1419076
-0.01031286 -0.025873251 -0.10340573 -0.09543241 -0.063384555 -0.1090205 -0.07700603 0.0022196237
00000000: ca86 00be 4693 9fbc 96cc b3bc 1683 d7bd
00000010: dcbc 9dbd 2788 cbbd 8401 8dbc d94f 5abd
00000020: f97a 2bbd 1240 6cbd c1cb 9ebd 8a71 583d
00000030: 6b9c 82bd 0669 91bc e17d 85bd 7bc5 22bc
00000040: 2406 ccbd 6f7c 44bd a4a6 d2bd 7c97 8abd
00000050: d868 23bc 41ce c9ba 553b f4bb e789 5c3c
00000060: b5f1 a5bd 94f8 ddbd 9683 0fbd 6ecd 393c
00000070: ac77 fbbc b63a 21be c0cb c5bd 3634 ddbc
00000080: b963 3abd 8e8e d0bc 21a5 aaba 9fb3 febd
00000090: f380 a6bd c537 e2bc 9a46 28bd 39c3 94bd
000000a0: 39e8 c7bd 7042 b5bd c14d 913c 4537 8abd
000000b0: a0cd 74bb c405 38bd 473d e2bd b617 46bd
000000c0: 8130 0abe 648c 4abd bd03 f2bc b5b1 31bd
000000d0: 5406 b43c ba29 503d bcc8 95bd 9ea0 22be
000000e0: a682 c23c 2af7 37bd 9e5e bbbd 533a b6bd
000000f0: 4a6f bfbd a040 a9bd 840a 64bd 0ec4 92bb
00000100: 45ec 6b3f 6f9f 763f 35fc 743f a193 643f
00000110: adfa 643f 422d 683f 0e19 7c3f 0a3d 703f
00000120: 05e4 6c3f 0c72 6d3f 6507 6e3f 73d3 7b3f
00000130: 5add 703f d868 7b3f 7a3a 6b3f ddb0 833f
00000140: 66d4 683f e6ab 663f 3dee 693f b2fd 603f
00000150: 0e4e 653f e3aa 6e3f f963 7d3f 07bd 793f
00000160: a19b 6b3f b3cc 623f 33db 743f 7d3a 783f
00000170: a632 803f 49a3 563f 9f3a 623f 94bf 733f
00000180: fb30 683f 87ac 6d3f 0ea7 7f3f e3b4 613f
00000190: f02a 6c3f bdb6 773f 300b 7b3f 4f7e 673f
000001a0: d6fd 613f c739 663f dc35 7a3f 4418 723f
000001b0: 216c 7c3f 6fe1 6f3f 4670 6a3f fb16 713f
000001c0: c565 5c3f eea1 6c3f a0cd 6e3f 3523 733f
000001d0: a623 783f 8dcb 773f 676f 7f3f 2521 593f
000001e0: 6872 6f3f 450e 703f 3a55 673f f1aa 603f
000001f0: bc49 763f 7d6f 6a3f cbbe 6f3f e25a 763f
00000200: 9f00 9fbb 79f1 46bc a586 823c b4ce 8abd
00000210: ad7f 973c 9a29 adbc 6054 1ebd 02f8 1d3c
00000220: 41d3 4dbb 0738 973c 4e8c 65bd ba05 56bd
00000230: 8f9a 16bd f888 b03c f7ca 35bd 1956 6b3c
00000240: cd5b 79bc e430 0e39 cfc6 aabc b737 093c
00000250: 75ad 7cbb 3827 a33c 265a 89bc d4ad c83c
00000260: d749 40bd 1886 6b3b 351f 2ebd 25ac e43c
00000270: 6c65 80bd c110 d53c f4f6 2c3c 162e ce3c
00000280: 4d7c 3cbd cb9a 8b3d 278f cebc 6949 653c
00000290: 1672 0bbb 2b91 8bbc 3756 60bd f605 9bbb
000002a0: 4fe3 2c3b b967 be3b e82c 4c3c 7591 ec39
000002b0: bad3 4dbc 076a 3fba 4d86 783d 00f1 803c
000002c0: 68cd 88bc d081 d0bc 58df 3dbd b6fb dd3c
000002d0: 0d7d 7bbd 76ec dfbc b548 85bd ddbf 89bc
000002e0: d35a c8bc 1365 6abc 8715 823d 6f4e ebbb
000002f0: b40a ffbb 99b3 383d 4b3a 4c3d 299f 92ba
00000300: 32ca babd 94c9 dcbc a362 03bd 5ce3 bbbd
00000310: 9be7 a9bd 03db afbd 9d83 c1bc 6b05 58bd
00000320: e75f 96bd 4e9b 63bd cd0e bdbd a072 013d
00000330: 535d 4fbd bbbf c73c 75fb 8fbd 6549 103c
00000340: 3cf2 93bd 7114 b2bd d749 d8bd a329 90bd
00000350: 2e87 3ebb 13db 73bd d57b e8bb 798c 48bd
00000360: bd0e c5bd 1c26 dfbd c7a5 8dbc ddbd 71bb
00000370: 8767 18bd 8420 22be 3aab d2bd 4861 29bd
00000380: fb7f 32bd b26e 3cbd 2300 dfbc 8de5 06be
00000390: 59eb b2bd 57f4 49bd 41d5 e7bc a6d5 8dbd
000003a0: 113c d6bd 2d02 9abd 637d aeba 7be9 afbd
000003b0: a783 4c3c 92e5 3abd 51db c3bd 3b34 2abd
000003c0: 766d eebd bbcf 16bd 57a0 e9bc 8a1f 4dbd
000003d0: 042f bf3c 7b2b 813d 51f9 0abd 3a50 11be
000003e0: 45f7 28bc 24f4 d3bc 62c6 d3bd 1172 c3bd
000003f0: c3cf 81bd 2446 dfbd 56b5 9dbd 1b77 113b

tfl.pseudo_qconst8 i1 [256, 128]
-46 -9 -22 48 -4 52 -1 -33
-17 -66 31 15 -15 -62 10 -22
7 -34 26 10 5 -41 17 -13
9 -85 -10 72 -40 100 56 -57
-11 21 98 -37 -71 37 71 32
76 34 -37 -9 -27 -66 -32 44
-31 4 127 49 13 -102 -54 54
11 22 109 -12 -104 59 10 61
-54 -23 26 14 11 -36 23 -65
71 71 -87 15 36 -12 -10 71
-52 -26 -116 5 28 0 -119 -43
13 75 54 -79 22 -60 -50 -5
-2 -56 -64 -9 112 -11 72 40
-20 -1 -20 26 -54 -100 -41 34
-18 -98 -77 -13 -9 -85 -87 61
-98 61 10 -44 -49 96 -41 -2
-15 -56 -99 14 86 42 -49 -51
-20 35 25 56 -60 42 -45 19
55 7 -12 11 10 4 1 36
16 28 -42 -50 3 -63 -3 1
28 64 48 42 -44 -72 -52 23
-3 11 -57 32 -23 33 50 -27
-43 -39 20 47 5 -25 -39 -61
73 67 -7 -29 107 27 -32 -88
13 -89 21 59 15 73 -13 35
62 25 -48 6 -28 -1 -71 -62
-1 64 64 85 -24 42 -83 -43
-44 -3 -106 127 16 -11 -99 22
85 15 -16 -29 -26 -20 -64 -29
44 0 27 -9 22 -36 -33 -16
87 -76 -30 23 33 1 -30 -13
32 95 -32 17 12 -20 -42 11
00000000: d2f7 ea30 fc34 ffdf efbe 1f0f f1c2 0aea
00000010: 07de 1a0a 05d7 11f3 09ab f648 d864 38c7
00000020: f515 62db b925 4720 4c22 dbf7 e5be e02c
00000030: e104 7f31 0d9a ca36 0b16 6df4 983b 0a3d
00000040: cae9 1a0e 0bdc 17bf 4747 a90f 24f4 f647
00000050: cce6 8c05 1c00 89d5 0d4b 36b1 16c4 cefb
00000060: fec8 c0f7 70f5 4828 ecff ec1a ca9c d722
00000070: ee9e b3f3 f7ab a93d 9e3d 0ad4 cf60 d7fe
00000080: f1c8 9d0e 562a cfcd ec23 1938 c42a d313
00000090: 3707 f40b 0a04 0124 101c d6ce 03c1 fd01
000000a0: 1c40 302a d4b8 cc17 fd0b c720 e921 32e5
000000b0: d5d9 142f 05e7 d9c3 4943 f9e3 6b1b e0a8
000000c0: 0da7 153b 0f49 f323 3e19 d006 e4ff b9c2
000000d0: ff40 4055 e82a add5 d4fd 967f 10f5 9d16
000000e0: 550f f0e3 e6ec c0e3 2c00 1bf7 16dc dff0
000000f0: 57b4 e217 2101 e2f3 205f e011 0cec d60b

tfl.pseudo_qconst9 i1 [256, 64]
-10 16 -10 -15 -18 -29 19 -65
-101 17 33 54 -26 -121 -115 -76
102 13 16 22 5 -15 -24 -20
-31 -12 -67 56 24 -80 65 -22
17 34 -36 53 75 9 -127 49
29 126 16 -76 -36 59 -73 -104
10 -52 1 -62 57 -37 4 -106
-49 4 -59 24 8 6 7 -33
55 87 -52 43 53 22 24 74
32 31 22 -1 -62 -16 99 -53
14 35 -20 -6 -47 19 -47 -29
27 72 -127 22 39 55 -91 18
-39 -53 73 -24 21 -8 23 23
-110 5 -13 34 -16 92 3 34
36 37 23 58 29 -109 14 -50
31 -39 40 -18 59 -8 2 50
-52 -71 -5 108 49 -39 6 -42
-51 -123 75 -26 55 81 69 37
63 72 -38 10 26 52 45 8
42 51 -39 -58 127 -35 66 36
44 14 -23 38 -5 33 75 -31
62 -36 -36 68 -67 57 -4 -61
5 21 50 117 103 6 88 6
-14 3 -40 34 107 -63 23 48
17 -5 127 -48 17 -42 -8 -24
-97 46 21 16 -58 11 -42 -12
-25 14 83 46 11 72 -61 -89
27 -4 -50 23 65 31 112 -31
34 31 -6 48 38 -24 -83 0
-68 62 84 -45 45 45 -72 64
5 -65 24 -41 -14 -77 21 -34
-63 -24 -23 2 31 48 -50 -4
00000000: f610 f6f1 eee3 13bf 9b11 2136 e687 8db4
00000010: 660d 1016 05f1 e8ec e1f4 bd38 18b0 41ea
00000020: 1122 dc35 4b09 8131 1d7e 10b4 dc3b b798
00000030: 0acc 01c2 39db 0496 cf04 c518 0806 07df
00000040: 3757 cc2b 3516 184a 201f 16ff c2f0 63cb
00000050: 0e23 ecfa d113 d1e3 1b48 8116 2737 a512
00000060: d9cb 49e8 15f8 1717 9205 f322 f05c 0322
00000070: 2425 173a 1d93 0ece 1fd9 28ee 3bf8 0232
00000080: ccb9 fb6c 31d9 06d6 cd85 4be6 3751 4525
00000090: 3f48 da0a 1a34 2d08 2a33 d9c6 7fdd 4224
000000a0: 2c0e e926 fb21 4be1 3edc dc44 bd39 fcc3
000000b0: 0515 3275 6706 5806 f203 d822 6bc1 1730
000000c0: 11fb 7fd0 11d6 f8e8 9f2e 1510 c60b d6f4
000000d0: e70e 532e 0b48 c3a7 1bfc ce17 411f 70e1
000000e0: 221f fa30 26e8 ad00 bc3e 54d3 2d2d b840
000000f0: 05bf 18d7 f2b3 15de c1e8 e902 1f30 cefc
